snnTorch/snn_full_model.pth (torch, 117955 bytes, 18 tensors)

0.weight f4 [128, 2]
0	0x3fc8f3d1	1.5699407
1	0x3fa5b748	1.2946558
2	0xbf3f4b0e	-0.747239
3	0xbf0be112	-0.54640305
4	0x3fbea137	1.4892949
5	0x3f92b482	1.1461337
6	0xbf2128b5	-0.6295274
7	0xbe66a1c8	-0.22522652
8	0x3d2d98ca	0.04238204
9	0xbe8e58eb	-0.27802214
10	0x3e755f32	0.23962095
11	0x3dcf383b	0.10118147
12	0x3f2262ff	0.63432306
13	0x3edf4f04	0.43614972
14	0x3ebc4856	0.36773938
15	0xbde2e6c0	-0.11079168
16	0x3fbf8045	1.496102
17	0x3f81173a	1.0085213
18	0xbf28190b	-0.6566321
19	0xbe96e931	-0.29474786
20	0x3f1e0839	0.61731297
21	0x3f035f63	0.51317424
22	0x3fa1ebb7	1.265006
23	0x3fab78c7	1.3396233
24	0x3fbae163	1.4600033
25	0x3fb311e6	1.3989837
26	0xbf051140	-0.51979446
27	0x3e10b218	0.14130437
28	0xbf01123a	-0.50418437
29	0xbf206ca7	-0.6266579
30	0xbf058c17	-0.52166885
31	0xbf31910a	-0.6936194
32	0x3f9facf4	1.2474656
33	0x3f981092	1.1880057
34	0xbee49e4f	-0.4465203
35	0x3eb361c5	0.3503553
36	0xbf4cc90b	-0.7999427
37	0xbe7264ce	-0.23671266
38	0x3fb5c1c3	1.4199756
39	0x3f913452	1.1344092
40	0xbeac685b	-0.33673367
41	0xbd5b0c98	-0.053478807
42	0x3d8b74bc	0.06809375
43	0xbd9127c7	-0.07087665
44	0xbf1d1247	-0.61356014
45	0x3ec0ec39	0.37680224
46	0xbddad6e4	-0.106855184
47	0xbdd111be	-0.10208462
48	0x3fc07498	1.5035582
49	0x3f8b0d19	1.0863372
50	0x3f610db9	0.87911564
51	0x3f41f669	0.7576662
52	0x3f8f926e	1.1216562
53	0x3f86b85f	1.0525016
54	0x3fbb4b1a	1.4632294
55	0x3f8d469b	1.1037172
56	0x3fc69b27	1.5516099
57	0x3fb59cc3	1.4188465
58	0xbf230df3	-0.6369316
59	0xbee70568	-0.45121312
60	0x3dc0cbaf	0.094138496
61	0x3e197c2a	0.14988771
62	0x3e258701	0.16164781
63	0xbf30a401	-0.6900025
64	0x3ddf191e	0.108934626
65	0xbf24e5a4	-0.64412904
66	0x3c29244f	0.010323598
67	0xbf127c32	-0.57220757
68	0xbfe9acc9	-1.8255855
69	0xbfd2b51d	-1.6461521
70	0x3fcc4022	1.5957072
71	0x3fa794a4	1.3092237
72	0xbf166c31	-0.58758837
73	0xbf23b602	-0.63949597
74	0x3eff5a48	0.49873567
75	0x3e83a3c5	0.25710884
76	0xbeab50e0	-0.3346014
77	0x3daec79b	0.085341655
78	0x3ea8cf1d	0.32970515
79	0x3e85a7a0	0.2610445
80	0x3fba41a8	1.4551287
81	0x3fb17b08	1.3865671
82	0x3f9e16ea	1.2350743
83	0x3fa4368f	1.282915
84	0xbece79db	-0.40327343
85	0xbe969c09	-0.2941592
86	0x3f249018	0.6428237
87	0x3fabdd25	1.3426863
88	0xbf10d4bb	-0.565746
89	0xbd9f58e8	-0.077806294
90	0xbf08de0a	-0.53463805
91	0xbe7fa0f5	-0.24963744
92	0x3fc10c65	1.5081908
93	0x3fafcf79	1.3735191
94	0xbe586647	-0.21132766
95	0x3f138497	0.5762419
96	0x3f9d61e6	1.2295501
97	0x3fab02d5	1.3360239
98	0xbe7562e3	-0.23963504
99	0x3eec9e98	0.46214747
100	0xbe829452	-0.25503784
101	0x3eebeb2e	0.46077865
102	0xbf315dab	-0.6928355
103	0x3f1b3e04	0.60641503
104	0x3fccfbdf	1.6014365
105	0x3fba29fb	1.4544061
106	0x3f0c1648	0.547215
107	0xbf037dc2	-0.51363766
108	0x3d0a9b80	0.033839703
109	0xbefad86f	-0.4899325
110	0xbebd7099	-0.36999968
111	0xbf2b515d	-0.66921026
112	0x3f2e707a	0.68140376
113	0x3fafd4a6	1.373677
114	0xbeb56c94	-0.354344
115	0x3f299c6f	0.66254324
116	0x3f829548	1.0201807
117	0x3f7fde76	0.99948823
118	0xbf1802cd	-0.59379274
119	0x3db8fd45	0.09032682
120	0x3fbcff62	1.4765437
121	0x3f90d445	1.131478
122	0xbf4b0046	-0.7929729
123	0xbf2df810	-0.6795664
124	0x3fa5d765	1.2956358
125	0x3fd2a936	1.6457889
126	0x3eae8303	0.3408433
127	0xbe50d176	-0.20392403
128	0x3f1249ca	0.57143843
129	0xbeb1bee5	-0.34715953
130	0x3e9c92c5	0.30580726
131	0xbe30721a	-0.17231026
132	0x3fbfb9db	1.4978594
133	0x3f8ede4d	1.1161591
134	0x3e207618	0.15670049
135	0xbde7acb5	-0.11312238
136	0xbf8a13b0	-1.0787258
137	0xbeb12269	-0.34596565
138	0x3fd871b3	1.6909698
139	0x3fbe1127	1.4848984
140	0x3fd2fe90	1.6483936
141	0x3fcde920	1.6086769
142	0x3ef703f8	0.48245215
143	0xbee4e8db	-0.44708905
144	0xbe7f48d0	-0.2493012
145	0x3f016993	0.5055172
146	0x3ca2e52d	0.01988467
147	0xbe86857e	-0.2627372
148	0x3fd3074a	1.64866
149	0x3f983659	1.1891586
150	0xbfaeccca	-1.3656247
151	0xbeb37ae1	-0.35054687
152	0x3da53dfd	0.08068464
153	0x3e075d82	0.13219264
154	0xbf14f306	-0.58183324
155	0x3e4816a6	0.1953989
156	0xbdd889ff	-0.10573196
157	0x3f0da8e3	0.55335826
158	0x3fa84c00	1.3148193
159	0x3f861c8f	1.0477465
160	0xbee0dd72	-0.4391895
161	0xbde95591	-0.113932736
162	0x3f9999fc	1.2000117
163	0x3fb378a4	1.4021192
164	0x3e56bdcb	0.20970838
165	0xbef3ea3d	-0.47639647
166	0xbe484eb6	-0.19561276
167	0x3e56cc39	0.20976342
168	0x3e0467e5	0.12930258
169	0xbdd30546	-0.1030374
170	0x3ef8199c	0.48457038
171	0xbee59c77	-0.44845936
172	0x3fcc1684	1.5944371
173	0x3fb1db77	1.38951
174	0xbede4e25	-0.43418995
175	0xbee33f7b	-0.4438437
176	0x3e7dc945	0.2478381
177	0x3eb23f1f	0.34813783
178	0x3fcfce9b	1.6234926
179	0x3fb30f3e	1.3989027
180	0x3ddfc95d	0.10927079
181	0xbddcb404	-0.10776523
182	0xbfdb7469	-1.71449
183	0xbf2a93f0	-0.66631985
184	0x3e236320	0.15955782
185	0x3ccfcaf4	0.02536533
186	0xbebc1b2e	-0.36739486
187	0x3f2ed458	0.6829276
188	0x3f98f9bb	1.1951212
189	0x3f883a82	1.0642855
190	0xbedb3dfa	-0.42820722
191	0xbf2bef65	-0.6716216
192	0x3e6c787a	0.23092833
193	0xbe390807	-0.18069468
194	0x3fc03c83	1.5018467
195	0x3fb65742	1.4245379
196	0xbe518574	-0.20461065
197	0x3f1665de	0.58749187
198	0xbf1452be	-0.57938755
199	0xbe5c2ea0	-0.21502161
200	0x3e0bea36	0.13663563
201	0x3d56fe81	0.052488808
202	0x3eecfcdb	0.46286663
203	0xbf2ff18a	-0.68727934
204	0xbf1e8444	-0.6192057
205	0x3eef1a05	0.4669954
206	0x3fbc2ddc	1.4701495
207	0x3fa9cfec	1.3266578
208	0x3d2b17d7	0.041770782
209	0xbeb61867	-0.35565493
210	0x3eb1bf6a	0.3471635
211	0xbe81fdc5	-0.25388923
212	0xbf11bb2e	-0.5692624
213	0xbfba6787	-1.4562844
214	0x3fa5077a	1.2892907
215	0x3fb290de	1.395046
216	0x3fb3bc73	1.4041885
217	0x3f9f57d2	1.2448676
218	0xbefecd5f	-0.4976606
219	0x3dc14765	0.094374456
220	0xbf2cdb7a	-0.67522395
221	0x3edffdb2	0.43748242
222	0x3f47feb8	0.78123045
223	0x3f7aa044	0.97900796
224	0x3e69f3d5	0.22846921
225	0x3ea81311	0.32827047
226	0x3fb62204	1.4229131
227	0x3fb55c73	1.4168838
228	0x3fa301db	1.2734941
229	0x3faa80fb	1.3320612
230	0x3fc6dab7	1.5535496
231	0x3f954195	1.1660639
232	0x3fd08e1e	1.6293371
233	0x3faad255	1.3345438
234	0xbf25aa24	-0.6471274
235	0xbef8be51	-0.485827
236	0xbf0daa89	-0.5533834
237	0xbf2f0f4d	-0.6838272
238	0x3fc97718	1.573947
239	0x3fb04237	1.3770207
240	0x3fc93ec5	1.5722281
241	0x3f9fbc9b	1.2479433
242	0xbfaf5d34	-1.3700318
243	0xbeec7e59	-0.46190146
244	0x3fba41a3	1.4551281
245	0x3f63e0d1	0.8901492
246	0x3ed30288	0.4121287
247	0xbe6c708a	-0.23089805
248	0xbe951409	-0.29116848
249	0x3eb90da0	0.36143208
250	0xbf1c4df2	-0.61056435
251	0x3e6e399a	0.23264161
252	0xbe86b819	-0.2631233
253	0xbd9fa026	-0.07794218
254	0xbf0e0ba5	-0.5548652
255	0xbf19db4e	-0.6010026

0.bias f4 [128]
0	0x3df9681c	0.121780604
1	0x3e8c2f4a	0.2737983
2	0x3e20475a	0.15652218
3	0xbe2eb370	-0.17060637
4	0xbf1012fd	-0.56278974
5	0x3b149367	0.0022670866
6	0xbf3b87ea	-0.73254263
7	0xbdb48b2b	-0.08815607
8	0x3e3fdce2	0.18736604
9	0x3e9bfae9	0.30464867
10	0xbe8f435f	-0.27981088
11	0x3e130209	0.14356245
12	0x3e070e1c	0.13188976
13	0xbef9973a	-0.4874819
14	0xbf0f0e0f	-0.55880827
15	0xbf20cdbf	-0.62813944
16	0x3e2d45f9	0.16921224
17	0xbe15f2eb	-0.14643447
18	0x3ea619c6	0.3244154
19	0x3e247a1e	0.16062209
20	0xbf26ed40	-0.65205765
21	0xbe20120b	-0.15631883
22	0xbebc3873	-0.36761817
23	0x3e649fc3	0.2232657
24	0x3e285070	0.16436934
25	0x3f2c8bd3	0.67400855
26	0x3e5b627c	0.21424288
27	0x3e2a44c4	0.16627795
28	0x3da53a32	0.080677405
29	0xbd43390a	-0.04766182
30	0xbef15d9d	-0.47141734
31	0xbe85040b	-0.25979647
32	0x3e8d57a0	0.27605915
33	0x3c7e291d	0.015512732
34	0x3f399bc7	0.7250332
35	0x3dd70f63	0.10500982
36	0xbe8ef524	-0.27921402
37	0xbf2a3468	-0.66486216
38	0x3d22f339	0.039782736
39	0x3dd2a394	0.10285106
40	0x3dd9dbcf	0.10637628
41	0x3e1cf9a2	0.15329602
42	0xbe88ba89	-0.26704815
43	0x3e2a8357	0.16651665
44	0xbedc389d	-0.43011943
45	0x3e892494	0.2678572
46	0x3dbaeea7	0.091275506
47	0xbf26e70b	-0.65196294
48	0x3e1b23bf	0.15150355
49	0xbe908041	-0.2822285
50	0xbf29694b	-0.6617629
51	0xbf3bfa71	-0.7342902
52	0x3d77fb75	0.060542542
53	0xbe3e6739	-0.18594064
54	0x3de3d095	0.11123768
55	0xbe8ded3c	-0.27720058
56	0x3e175183	0.14777188
57	0xbf1f646c	-0.62262607
58	0x3e5b14a9	0.213946
59	0xbf224714	-0.63389707
60	0x3e284fd8	0.16436708
61	0x3f5d431f	0.86430544
62	0x3e0d7eed	0.1381795
63	0x3de0a68c	0.10969266
64	0xbf0ff8d3	-0.5623905
65	0xbf29f5c9	-0.66390663
66	0x3e27bf8c	0.16381663
67	0xbe8b32bb	-0.27187142
68	0x3f5a7ad1	0.8534365
69	0x3d374fca	0.044753827
70	0x3d6d0c18	0.05787286
71	0xbe8f6a44	-0.28010762
72	0xbf0fd605	-0.5618594
73	0xbe2a8e22	-0.16655782
74	0x3e13f2ee	0.14448139
75	0x3f2b42ac	0.6689861
76	0xbe832c6b	-0.25619826
77	0xbedca581	-0.4309502
78	0xbf0ce176	-0.55031526
79	0x3ea16dd0	0.31529093
80	0xbeea1764	-0.4572097
81	0x3e3ecf0f	0.18633674
82	0xbeb568cb	-0.35431513
83	0xbf178779	-0.5919109
84	0x3da8bb87	0.08238893
85	0x3ed20ea4	0.41026795
86	0x3db65895	0.089036144
87	0xbe631cc4	-0.22178942
88	0xbe2df526	-0.16988048
89	0x3da18a9e	0.07887767
90	0x3cd40b79	0.025884377
91	0x3f296bc3	0.66180056
92	0xbdcbc130	-0.09948957
93	0xbf220dc5	-0.6330226
94	0x3e4f3421	0.2023473
95	0xbe9139e1	-0.2836447
96	0xbf0b3e71	-0.54392153
97	0x3dbd89a0	0.092547655
98	0xbf264f76	-0.64965
99	0xbefedf1f	-0.49779603
100	0xbdce7ef4	-0.10082808
101	0x3f0549ee	0.5206593
102	0x3ee00860	0.4375639
103	0x3e0ac82e	0.13552925
104	0x3dd2d85b	0.10295173
105	0xbf392061	-0.7231503
106	0x3f2cc7a3	0.6749212
107	0x3e07a715	0.1324733
108	0x3e32bb8e	0.17454359
109	0xbea429ff	-0.3206329
110	0xbf15e5b9	-0.58553654
111	0x3ed3bf13	0.41356716
112	0x3f10c165	0.56545097
113	0x3dedc43a	0.11609693
114	0x3e0f5de6	0.14000663
115	0x3e15f480	0.1464405
116	0x3dc8b833	0.09800758
117	0xbd09a5ad	-0.033605266
118	0xbe53e0ff	-0.20691298
119	0x3db8260f	0.08991634
120	0x3e2805d9	0.1640848
121	0x3ee9fe7f	0.45701978
122	0x3e735560	0.23763037
123	0xbd9d0936	-0.076677725
124	0xbee73cf2	-0.45163685
125	0x3da63086	0.08114724
126	0xbda1c3c7	-0.0789867
127	0xbdcf79d4	-0.10130659

2.weight f4 [64, 128]
0	0x3f4bd3e4	0.79620194
1	0xbdb38a76	-0.08766644
2	0x3f32baed	0.69816476
3	0x3d4e3212	0.05034072
4	0xbb849d30	-0.0040470585
5	0xbc75e5a8	-0.015008368
6	0xbcac1864	-0.021007724
7	0xbc2e1e90	-0.010627404
8	0x3f128d01	0.57246405
9	0x3c6db680	0.014508843
10	0xbc93e9f0	-0.018055886
11	0x3eee2b26	0.46517295
12	0x3f02a293	0.5102932
13	0x3d0a5448	0.033771783
14	0xbd8ec370	-0.069708705
15	0x3d6e92e6	0.058245562
16	0x3f3aa945	0.72914535
17	0x3cda782c	0.02666863
18	0x3cfc8a60	0.030827701
19	0x3f27f6c8	0.65610933
20	0xbcf2edf4	-0.02965448
21	0xbd8e78a8	-0.06956607
22	0x3daf9ae3	0.08574464
23	0xbda2f3b0	-0.07956636
24	0x3f4a10a7	0.7893166
25	0x3cf28302	0.029603485
26	0x3e5fd6ef	0.21859334
27	0x3f263daa	0.6493784
28	0x3f411cb9	0.7543445
29	0x3c4dd7d8	0.012563668
30	0x3c440de8	0.011966206
31	0xbc959264	-0.018258281
32	0x3da9485b	0.08265754
33	0x3d80cde9	0.06289274
34	0xbd91d72a	-0.071211174
35	0x3ef589b4	0.47956622
36	0x3d9a1095	0.07522694
37	0xbda492c6	-0.08035807
38	0xbcb29084	-0.021797426
39	0x3cc92eac	0.024558388
40	0x3f28b0f0	0.65894985
41	0x3ebd60d0	0.36987925
42	0x3da031ed	0.078220226
43	0x3eb1f0f1	0.34754136
44	0x3d8bb3fd	0.068214394
45	0x3d9bf60f	0.07615291
46	0x3f5f1cff	0.8715362
47	0x3d6a45ae	0.057195358
48	0x3f2a33e4	0.6648543
49	0xbcd1b484	-0.025598772
50	0x3bc647f0	0.006051056
51	0xbb4497c0	-0.0029997677
52	0x3efa0013	0.48828182
53	0x3c6d5a88	0.014486916
54	0xbc62ac18	-0.013834976
55	0x3c1d1338	0.009587102
56	0x3eb49f57	0.35277817
57	0xbdac68f0	-0.08418453
58	0x3edd7ca7	0.43259165
59	0xbb653da0	-0.0034979358
60	0x3f371993	0.715234
61	0x3d2ac089	0.041687522
62	0x3f50557a	0.81380427
63	0xbd9428f6	-0.07234375
64	0x3d8c205d	0.0684211
65	0x3cd11254	0.025521435
66	0x3f3e371e	0.7430285
67	0x3da46663	0.08027341
68	0xbdaabcae	-0.08336769
69	0x3f7e954d	0.99446565
70	0x3f861656	1.0475566
71	0x3ca93f90	0.020660192
72	0x3cdafb6c	0.026731215
73	0xbcf417c6	-0.029796492
74	0x3eac2757	0.33623764
75	0x3dc5c175	0.096560396
76	0xbd8fcf9c	-0.0702202
77	0x3d51f57e	0.05125951
78	0xbcdeb82a	-0.027187426
79	0x3e707b3b	0.23484509
80	0x3c81d118	0.015846774
81	0x3e9b89ff	0.3037872
82	0x3d9921bb	0.07477137
83	0xbd02f646	-0.031973146
84	0xbda738c9	-0.08165128
85	0xbd144f04	-0.036208168
86	0x3efc291e	0.4925012
87	0xbd97d625	-0.07413892
88	0x3d101fa8	0.03518644
89	0x3f26a2bd	0.6509207
90	0xbd8595ac	-0.06522688
91	0xbcf1891c	-0.029484324
92	0xbd3c6f47	-0.04600456
93	0x3d666bde	0.056255214
94	0x3f1e26f6	0.617782
95	0xbcf76c3c	-0.030202977
96	0x3bcd3040	0.0062618554
97	0x3ee40c09	0.44540432
98	0x3d936731	0.071974166
99	0xbd775b2e	-0.06038969
100	0x3d84fdb1	0.064937
101	0xbd210fff	-0.039321896
102	0x3d877e2a	0.06615861
103	0x3ecc2c46	0.39877528
104	0x3d171d3e	0.036893122
105	0x3d6857da	0.056724407
106	0x3d216327	0.0394012
107	0x3f0ae842	0.5426065
108	0x3ef83679	0.4847906
109	0xbd8b105b	-0.06790229
110	0x3d14fd30	0.03637427
111	0x3e0e5057	0.13897835
112	0xbb3515e1	-0.002763145
113	0x3f2a6609	0.66561943
114	0x3f18b3b5	0.5964921
115	0x3f1f1ebf	0.6215629
116	0x3ec9bda3	0.39402494
117	0x3d080b62	0.03321398
118	0xbd6f8bcd	-0.058482934
119	0x3f4d952a	0.8030573
120	0x3e8a857a	0.2705496
121	0x3c5d32ff	0.013500928
122	0x3ea75397	0.3268096
123	0x3c1e4f40	0.009662449
124	0x3c22cec8	0.009936996
125	0xbc0d3418	-0.008618377
126	0xbd180501	-0.037114147
127	0x3d8f397d	0.06993387
128	0x3f27350f	0.65315336
129	0x39cb8200	0.00038816035
130	0x3f05983b	0.5218541
131	0x3d80bc53	0.0628592
132	0x3d944bb7	0.07241004
133	0x3d562e06	0.052289985
134	0xbc72fbc8	-0.014830537
135	0xbd8a5f00	-0.06756401
136	0x3f04c1c5	0.5185817
137	0xbcec9106	-0.028877746
138	0x3db3fd0f	0.087885015
139	0x3f2ef615	0.6834424
140	0x3f29d84d	0.66345674
141	0xbd6d5e8c	-0.057951495
142	0x3d8c4799	0.06849594
143	0x3d604cfa	0.05476091
144	0x3f46304c	0.77417445
145	0x3c96b758	0.018397972
146	0xbd6b2e3b	-0.057417136
147	0x3f0d2cdc	0.55146575
148	0xbd156324	-0.0364715
149	0xbd001bdb	-0.031276565
150	0xbcf98fc8	-0.030464068
151	0x3d072ad2	0.03299982
152	0x3f0dae4e	0.5534409
153	0x3cc5e70e	0.024158027
154	0x3eafb437	0.3431718
155	0x3f1c22f7	0.6099085
156	0x3f490cb2	0.78534997
157	0x3d8674e7	0.06565266
158	0x3d8699a7	0.065722756
159	0x3d49476e	0.049140386
160	0x3c5f0a28	0.013613261
161	0xbd9aba9a	-0.07555123
162	0xbe5b752e	-0.21431419
163	0x3f1c8134	0.6113465
164	0xbd5ff31f	-0.054675218
165	0x3cbcaf30	0.023032755
166	0xbceec424	-0.029146262
167	0xbc6ac3e8	-0.014328934
168	0x3f4ac139	0.79201084
169	0x3f2f4e99	0.68479306
170	0xbc75a6f0	-0.014993414
171	0x3f3ad28d	0.72977525
172	0xbbfb5ee0	-0.007671222
173	0x3d7fbc3a	0.062435366
174	0x3f48bd65	0.78413993
175	0x3d074422	0.03302396
176	0x3f3547ea	0.7081286
177	0xbdac149c	-0.084023684
178	0xbd3f2616	-0.04666718
179	0xbd9a7e4e	-0.07543622
180	0x3f213771	0.6297522
181	0xbd9c2e56	-0.076260254
182	0x3d1be646	0.038061403
183	0xbcde8530	-0.027163118
184	0x3f45951f	0.77180666
185	0xbcc4b7f0	-0.02401349
186	0x3ea498a8	0.32147717
187	0xbaf243c0	-0.0018483326
188	0x3f1163c8	0.5679288
189	0xbdfa76e5	-0.122297086
190	0x3f88a476	1.067519
191	0xbd9618d5	-0.07328955
192	0x3d22491e	0.03962051
193	0xb987c100	-0.00025893003
194	0x3f571713	0.84019583
195	0x3cf156a4	0.029460259
196	0x3d04632d	0.032321144
197	0x3f88f06e	1.0698373
198	0x3f66bbf1	0.90130526
199	0x3d2c7892	0.042107172
200	0xbc903d74	-0.017607428
201	0x3d95871b	0.0730116
202	0x3f046182	0.51711285
203	0x3c913b9e	0.017728623
204	0x3d8c728f	0.06857788
205	0x3a408900	0.00073446333
206	0x3c707398	0.014675997
207	0x3eacd9b2	0.33759838
208	0xbd4d3814	-0.05010231
209	0x3f04c248	0.5185895
210	0x3d6f1dfe	0.058378212
211	0x3dafbaaf	0.08580529
212	0xbcd218a0	-0.025646508
213	0xbcf5d96f	-0.030010907
214	0x3f09f6a1	0.5389195
215	0xbd80127b	-0.06253525
216	0xbdaccb2b	-0.08437189
217	0x3f2d0665	0.6758788
218	0x3d3e9ca6	0.04653611
219	0xbd3393f7	-0.043842282
220	0xbd65948d	-0.056049872
221	0x3d46fb22	0.048579343
222	0x3f0b30e7	0.54371494
223	0xbd0637fc	-0.032768235
224	0x3d0d64dc	0.034520015
225	0x3f116f30	0.56810284
226	0xbd13201c	-0.035919294
227	0x3d60cdfa	0.054883935
228	0xbb7fbc00	-0.003902197
229	0xbd38aed2	-0.045088597
230	0x3d8b834c	0.06812152
231	0x3f17bdf6	0.5927423
232	0x3d1981f2	0.03747744
233	0x3d816b01	0.063192375
234	0xbd822685	-0.06355003
235	0x3f23f2bd	0.64042264
236	0x3f2a9a06	0.6664127
237	0x3ce0f3d0	0.027460009
238	0xbd1abb9d	-0.03777658
239	0x3e33e317	0.17567097
240	0x3cdf45be	0.027254935
241	0x3f38b4a1	0.7215062
242	0x3f3c31d5	0.7351354
243	0x3ee78d21	0.4522486
244	0x3f0af88a	0.5428549
245	0xbc9c7a00	-0.019101143
246	0xbd86263e	-0.06550263
247	0x3f1bf1a4	0.6091559
248	0x3f065d19	0.52485806
249	0xbdcf51d9	-0.10123033
250	0x3e98b004	0.2982179
251	0xbd8b8c6c	-0.06813893
252	0x3db0e7ef	0.08637988
253	0x3ba3cf50	0.004999079
254	0x3db0feab	0.08642324
255	0xbcf0d2a6	-0.02939732

2.bias f4 [64]
0	0xbc3db3ea	-0.011578539
1	0xbbbafe83	-0.0057066097
2	0x3e23e64f	0.16005825
3	0x3da6f1f7	0.0815162
4	0x3c1ac0ba	0.009445364
5	0xbe4a17f0	-0.19735694
6	0x3dcc49cf	0.09975015
7	0xbe44a4b6	-0.19203457
8	0xbe51ba89	-0.20481314
9	0x3d97d046	0.07412772
10	0x3e1de39d	0.15418859
11	0x3e1f895c	0.15579742
12	0x3de9e504	0.114206344
13	0x3d34e52d	0.04416387
14	0x3dbfe60a	0.09370048
15	0xbd80c4c3	-0.06287529
16	0xbe818885	-0.2529947
17	0x3d0897df	0.03334796
18	0xbeb84558	-0.35990405
19	0xbe1dbae3	-0.15403323
20	0x3e06c702	0.13161853
21	0x3dbb6fd7	0.09152191
22	0x3c1d2848	0.009592123
23	0x3df886cf	0.12135088
24	0x3df276b8	0.1183905
25	0xbe8ce90f	-0.2752156
26	0xbe04eecd	-0.1298172
27	0xbe418d4f	-0.18901561
28	0xbe133202	-0.14374545
29	0x3d9804f9	0.074228235
30	0xbe786bbe	-0.2425985
31	0x3e371a31	0.17881085
32	0x3e030110	0.12793374
33	0x3d18fda9	0.037351284
34	0xbd56ffbe	-0.05248999
35	0x3f20f4bc	0.62873435
36	0x3e042357	0.12904106
37	0x3cc39cf2	0.023878548
38	0x3ed5ffbb	0.4179667
39	0x3b13724e	0.002249855
40	0x3df68438	0.120369375
41	0xbc541467	-0.012944317
42	0x3e31ab2d	0.17350455
43	0x3d92e29e	0.0717213
44	0x3d2f3056	0.042770706
45	0xbe88de95	-0.26732317
46	0xbe51f001	-0.2050171
47	0x3db3225c	0.08746788
48	0x3ec5bd11	0.3862081
49	0x3d368376	0.044558965
50	0x3c38a950	0.011270836
51	0xbd2d745b	-0.042347293
52	0x3d8b6337	0.06806033
53	0xbd786e1d	-0.060651887
54	0x3d6dd563	0.05806483
55	0x3d234c40	0.03986764
56	0xbe0939d2	-0.13400963
57	0xbcd64bda	-0.026159216
58	0x3dd39e86	0.1033297
59	0x3e1b271e	0.15151641
60	0xbd0b0946	-0.03394439
61	0x3e0fe5ab	0.14052455
62	0x3da1fbd4	0.079093605
63	0x3d84654f	0.064646356

4.weight f4 [2, 64]
0	0xbff5d1a9	-1.9204608
1	0xbfd72d6a	-1.6810734
2	0xbfe85738	-1.8151617
3	0x3f5941cd	0.8486603
4	0xbfcd1c17	-1.6024197
5	0xbdb442ae	-0.08801781
6	0x3ea06d4d	0.3133339
7	0xbfbef82e	-1.4919488
8	0xbd81c7ee	-0.06336962
9	0xbfea3143	-1.8296283
10	0x3f113163	0.56715983
11	0xbcb83e15	-0.02249054
12	0x3f71db3b	0.94475144
13	0x3cbf27a5	0.023334334
14	0x3f46f225	0.77713233
15	0xbfedd62d	-1.8580986
16	0xbe12f0ed	-0.14349718
17	0xbf1ee92e	-0.62074554
18	0xbdaf1790	-0.08549416
19	0xbfc6350c	-1.5484939
20	0x3f486358	0.78276587
21	0x3ef8ec44	0.48617756
22	0xbfd3e665	-1.6554686
23	0xbfe1856c	-1.7618842
24	0x3f14c0c6	0.5810665
25	0xbd4c3110	-0.049851477
26	0xbb93c380	-0.0045093894
27	0xbddd56b4	-0.10807553
28	0xbd248ffc	-0.040176377
29	0xbfe1b6a3	-1.7633861
30	0xbd34afa8	-0.04411283
31	0x3caacb37	0.020848854
32	0x3f505f84	0.81395745
33	0xbfd5645e	-1.6671255
34	0xbfe8f66f	-1.8200206
35	0x3eb1ee94	0.34752333
36	0x3f783186	0.96950567
37	0x3eaf47ea	0.34234554
38	0x3db28a3c	0.08717772
39	0xbff7d8a9	-1.9362994
40	0x3f66865b	0.9004876
41	0xbfcea598	-1.6144285
42	0x3e092f44	0.13396937
43	0xbfe1a2a0	-1.7627754
44	0xbfe22bad	-1.7669579
45	0xbd9a2cc0	-0.07528067
46	0xbe180a9e	-0.148478
47	0xbff2b6ee	-1.8962076
48	0x3e8cbb94	0.2748686
49	0xbfeeb85d	-1.8650013
50	0xbfe20eb7	-1.7660741
51	0xbfe62352	-1.7979529
52	0xbfe4382c	-1.7829642
53	0xbbbe9fe0	-0.0058173984
54	0xbfeba851	-1.8410741
55	0xbfe6e6e7	-1.8039216
56	0xbe4107c4	-0.18850619
57	0xbcd71528	-0.026255205
58	0x3eec4a4f	0.46150443
59	0x3f0cad50	0.54951954
60	0xbff6f439	-1.9293281
61	0xbcd72070	-0.026260585
62	0xbfefb073	-1.8725723
63	0x3f1024ec	0.5630634
64	0x3ec9aa0a	0.39387542
65	0x3f15b3e4	0.58477616
66	0x3eab44fb	0.33451065
67	0xbefa8259	-0.48927572
68	0x3f20a9ba	0.6275898
69	0xbdbae65a	-0.09125967
70	0x3db37c83	0.08763983
71	0x3f05ca2e	0.52261627
72	0xbdb199b2	-0.08671893
73	0x3ee3a46a	0.44461375
74	0xbea9faa5	-0.3319904
75	0x3e3f6d51	0.18694045
76	0xbf21c01f	-0.6318378
77	0xbd879794	-0.06620708
78	0xbf1c75eb	-0.6111743
79	0x3ecc2709	0.3987353
80	0xbd1e206f	-0.03860515
81	0x3e8874c6	0.2665159
82	0xbd9357f6	-0.071945116
83	0x3ea86ba6	0.3289463
84	0xbe8b5aa9	-0.27217606
85	0xbda771f4	-0.08176032
86	0x3eb7ecd6	0.3592288
87	0x3efa4537	0.48880932
88	0xbe8edd66	-0.2790329
89	0xbdc1d7b0	-0.09464967
90	0xbc5f51a0	-0.013630301
91	0xbdf1ec92	-0.118127
92	0xbd260370	-0.040530622
93	0x3eee2166	0.46509856
94	0xbdc73488	-0.097268164
95	0x3debc7df	0.11512732
96	0xbe7800b1	-0.24219014
97	0x3ef1f049	0.47253636
98	0x3eb25612	0.3483129
99	0xbe2b9c53	-0.16758852
100	0xbee08827	-0.43853876
101	0xbe9ca84c	-0.3059715
102	0x3e74fe44	0.2392512
103	0x3ec6f415	0.38858095
104	0xbe0fb673	-0.14034443
105	0x3efa341d	0.48867884
106	0xbe4a6661	-0.19765617
107	0x3eed750a	0.46378356
108	0x3eb4a396	0.35281056
109	0xbdbe0ede	-0.092801794
110	0xbc758ed6	-0.014987668
111	0x3ef3d6c9	0.47624806
112	0xbe06c5b6	-0.13161358
113	0x3edc0a96	0.42976826
114	0x3ea82e81	0.3284798
115	0x3ebdee23	0.37095746
116	0x3ed3c579	0.41361597
117	0xbd130c58	-0.035900444
118	0x3ed6f3e4	0.4198295
119	0x3ed1e4bb	0.4099482
120	0xbab52fdf	-0.0013823471
121	0xbdfcc398	-0.12341994
122	0xbde7f97d	-0.11326883
123	0xbeed7de5	-0.46385112
124	0x3ea98419	0.33108595
125	0x3e113530	0.14180446
126	0x3f048d29	0.51777893
127	0x3cd2a49b	0.025713256

4.bias f4 [2]
0	0x3ee766aa	0.45195514
1	0x3dffa451	0.12482513

exp_avg f4 [128, 2]
0	0xb01bdd6e	-5.670334e-10
1	0x30fc7ce9	1.8370915e-09
2	0xab8f0f70	-1.0165046e-12
3	0xaec2f407	-8.8654466e-11
4	0xb04c8cfb	-7.4415113e-10
5	0x308afc8c	1.01126e-09
6	0xad63781a	-1.2930124e-11
7	0x2daca7a9	1.9628592e-11
8	0xac1d1aed	-2.2325989e-12
9	0x2b7290ec	8.617679e-13
10	0xaec01eea	-8.7366406e-11
11	0x2e70f967	5.4791196e-11
12	0xad10ba46	-8.226813e-12
13	0x2a810e08	2.292474e-13
14	0x2d8315cf	1.490266e-11
15	0x2cca58bd	5.7510372e-12
16	0xb01fbea0	-5.811476e-10
17	0xb113946d	-2.1475686e-09
18	0xaf15d2b2	-1.3626325e-10
19	0xaf3fde21	-1.7450265e-10
20	0xadc8f233	-2.2844926e-11
21	0xad3f1458	-1.086161e-11
22	0xb0cb8a48	-1.4809496e-09
23	0x30db491f	1.5955129e-09
24	0xb0710c59	-8.7692836e-10
25	0x3113a8a8	2.1487185e-09
26	0x2c339682	2.5520979e-12
27	0xacd291b0	-5.9847335e-12
28	0xacee30b2	-6.769773e-12
29	0x2d1c498e	8.883906e-12
30	0xaba79adc	-1.1909046e-12
31	0xab0fb5be	-5.1056024e-13
32	0xb0f4b079	-1.7803493e-09
33	0x30f2fe1f	1.7680043e-09
34	0x2d098e8a	7.819198e-12
35	0xacfed5ec	-7.2428643e-12
36	0x2f909be4	2.6304214e-10
37	0xaf9dd1d4	-2.8707225e-10
38	0xb05e1fa8	-8.0808116e-10
39	0x30915547	1.0574376e-09
40	0x2c4b9a19	2.8933576e-12
41	0xac92059c	-4.1501923e-12
42	0xadefc092	-2.7256673e-11
43	0x2dc1c24c	2.2027845e-11
44	0xad136afa	-8.379736e-12
45	0x2db9c9bb	2.1121651e-11
46	0x2da7ca8a	1.9075647e-11
47	0x2eefa746	1.08981754e-10
48	0xb01fdcff	-5.815792e-10
49	0x2eb52c60	8.2388096e-11
50	0x3168655d	3.3818062e-09
51	0x314fa2d0	3.0215013e-09
52	0xb091ccef	-1.0608384e-09
53	0x303ebb86	6.9388084e-10
54	0xb01ad4e4	-5.632741e-10
55	0x2ffbc05c	4.5793314e-10
56	0xb086cbe8	-9.807737e-10
57	0x30f76bf4	1.8002297e-09
58	0xadf515f6	-2.7863028e-11
59	0x2d87ac33	1.5424195e-11
60	0x2cb8e5f0	5.2551227e-12
61	0xad9790c7	-1.7231007e-11
62	0xae2420ee	-3.731853e-11
63	0x2d0afe99	7.900924e-12
64	0xaf219787	-1.4696698e-10
65	0x2d919f84	1.655543e-11
66	0x2e49469c	4.5764822e-11
67	0x2bbc997c	1.3400804e-12
68	0x31cf274a	6.0289596e-09
69	0xb1ac286b	-5.010454e-09
70	0xb00c6704	-5.10781e-10
71	0x30bc9b9f	1.372303e-09
72	0xad0cf3da	-8.0122246e-12
73	0x2cbb142b	5.3170988e-12
74	0xabf46098	-1.7364053e-12
75	0xad56d5d6	-1.2211973e-11
76	0x2de14cd9	2.5613666e-11
77	0x2d92f61d	1.6707575e-11
78	0xadeac30e	-2.6689342e-11
79	0x2e80e680	5.861711e-11
80	0xb08cb018	-1.023639e-09
81	0x30e56e22	1.6693245e-09
82	0xb0f181f0	-1.7571988e-09
83	0x30e22653	1.6454557e-09
84	0xacef281f	-6.797243e-12
85	0x2ae63140	4.0890381e-13
86	0x3288f332	1.5943076e-08
87	0x310681fa	1.957345e-09
88	0xac9f9cb6	-4.53645e-12
89	0x2ca4420c	4.668493e-12
90	0xaeafba98	-7.9912243e-11
91	0x2f0fc1ce	1.3074627e-10
92	0xb08ddf93	-1.0322644e-09
93	0x30f20bab	1.7611134e-09
94	0xac0dc588	-2.0146957e-12
95	0x2c598326	3.0910357e-12
96	0xb11776cc	-2.204092e-09
97	0x310826e6	1.9812716e-09
98	0x2c31f09b	2.5286776e-12
99	0xad597bcf	-1.2362513e-11
100	0xad0ac836	-7.8888476e-12
101	0x2d0add73	7.893563e-12
102	0x2bbeca50	1.3556465e-12
103	0x2c8cd526	4.0027036e-12
104	0xb02162ed	-5.871204e-10
105	0x30c360e3	1.4215654e-09
106	0x2e178bf6	3.4457735e-11
107	0xadb162f9	-2.0166523e-11
108	0xaec37eed	-8.89012e-11
109	0x2e2f0c3b	3.9801256e-11
110	0x2cd56551	6.0650725e-12
111	0xadbdb216	-2.1565898e-11
112	0x331c9a08	3.646167e-08
113	0x3100036d	1.8628399e-09
114	0x2aff9404	4.5399806e-13
115	0x2c0d500b	2.0081738e-12
116	0xb0b65231	-1.3265603e-09
117	0xaf44da00	-1.7903545e-10
118	0x2b213d18	5.7283475e-13
119	0xad2f92d4	-9.980201e-12
120	0xb04d52e6	-7.469637e-10
121	0x30987587	1.1092859e-09
122	0xb0865de6	-9.776471e-10
123	0xafa10324	-2.928796e-10
124	0xb11db55c	-2.2949598e-09
125	0x314df3cc	2.9970009e-09
126	0x2e7ce653	5.7502735e-11
127	0x2e8efae4	6.5019795e-11
128	0xad453bdd	-1.1211446e-11
129	0x2af489f9	4.3438845e-13
130	0x2ad197e0	3.7231242e-13
131	0x2c409129	2.7365421e-12
132	0xb0541425	-7.715378e-10
133	0x306ba592	8.572779e-10
134	0x2e082540	3.0955905e-11
135	0xad5be79d	-1.2500137e-11
136	0xb0aa9952	-1.2412704e-09
137	0x306a90bc	8.5334384e-10
138	0xb05c97ce	-8.025126e-10
139	0x310e6999	2.0723745e-09
140	0xb0811f5f	-9.394902e-10
141	0x31210e4f	2.3436717e-09
142	0xab48c1e0	-7.132333e-13
143	0xacc40fed	-5.572423e-12
144	0x2d266725	9.45891e-12
145	0xad214f2a	-9.169368e-12
146	0xad13de02	-8.405278e-12
147	0x2e276da1	3.8068774e-11
148	0xaf806a1c	-2.335846e-10
149	0x30844d32	9.626204e-10
150	0x30a2a1d2	1.1833043e-09
151	0x3208c400	7.960807e-09
152	0xaca2790c	-4.617756e-12
153	0xad8726f8	-1.5365029e-11
154	0xaca9cbba	-4.825887e-12
155	0xac363023	-2.5890477e-12
156	0xad266d1a	-9.460233e-12
157	0x2de839e9	2.6401064e-11
158	0xafc55c32	-3.58996e-10
159	0x3117614b	2.2028697e-09
160	0x2c972e2f	4.2968055e-12
161	0xac3bac24	-2.6669856e-12
162	0xb08e00a1	-1.0332039e-09
163	0x3105c431	1.946557e-09
164	0xacc9b7c4	-5.7331657e-12
165	0xace0be0e	-6.3875632e-12
166	0xace06f06	-6.378789e-12
167	0x2ce5a342	6.5266967e-12
168	0x2e9e93e9	7.211282e-11
169	0x2e292a50	3.8463732e-11
170	0xb1082d40	-1.9816326e-09
171	0x310619fa	1.9514332e-09
172	0xb018c4be	-5.5576865e-10
173	0x30b2bea1	1.3005385e-09
174	0xad2d33db	-9.845426e-12
175	0xace073e6	-6.3793302e-12
176	0x2e504105	4.7351473e-11
177	0xadefeddb	-2.7276783e-11
178	0xb0471b7c	-7.2434836e-10
179	0x30d73583	1.5658518e-09
180	0x2e187fb2	3.4674215e-11
181	0xadbb07ef	-2.1262962e-11
182	0x306b92da	8.570119e-10
183	0x315e2798	3.2327758e-09
184	0x2dae298d	1.9799962e-11
185	0x2ddcb5b4	2.5091797e-11
186	0xad17bfa7	-8.625912e-12
187	0xabb42dc4	-1.2802472e-12
188	0xb0ae232c	-1.2670163e-09
189	0x30904d55	1.0499358e-09
190	0x2d51991a	1.191427e-11
191	0x2dba27b9	2.1163392e-11
192	0x2d2fe822	9.999142e-12
193	0xac4ea532	-2.9366063e-12
194	0xb047ab3d	-7.263912e-10
195	0x30d75d62	1.566985e-09
196	0x2c454ab6	2.8036857e-12
197	0x2bca4abc	1.4373706e-12
198	0xada6c72a	-1.8960462e-11
199	0x2d92068f	1.6601191e-11
200	0x2d730d7f	1.38159475e-11
201	0xae6da2ec	-5.4032265e-11
202	0x31d8e4a2	6.31242e-09
203	0x32a0b323	1.8707913e-08
204	0xaec54e84	-8.97247e-11
205	0x3105a5fb	1.9448396e-09
206	0xb02895fc	-6.1331185e-10
207	0x30d7da33	1.5705325e-09
208	0xaee9ae25	-1.06265476e-10
209	0xac7d7fb8	-3.602436e-12
210	0xacaf7474	-4.986728e-12
211	0x2cfc8508	7.17704e-12
212	0x31ea6ecc	6.8228925e-09
213	0xb12e034b	-2.5322204e-09
214	0xb0e4509f	-1.6612097e-09
215	0x3107d2b4	1.9764856e-09
216	0xb03c5a4d	-6.8522327e-10
217	0x30fd15e6	1.8414397e-09
218	0xacdbada2	-6.2436315e-12
219	0x2d9bdc94	1.7719416e-11
220	0x2bcbe8d6	1.4488642e-12
221	0x2bfdb476	1.8026819e-12
222	0xb0a3486e	-1.1880397e-09
223	0x31533c36	3.0738767e-09
224	0xb19c0701	-4.540994e-09
225	0x32b42aba	2.0974188e-08
226	0xb0a0e455	-1.1706428e-09
227	0x310fa220	2.0901396e-09
228	0xb0f25d79	-1.7634384e-09
229	0x3101fb16	1.8914696e-09
230	0xb01a29ef	-5.6084465e-10
231	0x308549d4	9.698007e-10
232	0xafdb754e	-3.9919218e-10
233	0x30b564ad	1.3198097e-09
234	0x2c61bd8a	3.2079638e-12
235	0xada70aa7	-1.8990432e-11
236	0x2c988f30	4.335997e-12
237	0xad9301b8	-1.6712728e-11
238	0xb03aa43a	-6.7899786e-10
239	0x30eb04bd	1.7099847e-09
240	0xaf7cd390	-2.2994429e-10
241	0x30cfb8e8	1.5113786e-09
242	0x2fd7b039	3.9233486e-10
243	0x316b8432	3.4272145e-09
244	0xae2c9cb0	-3.924744e-11
245	0xb20a8ab7	-8.064197e-09
246	0xadc83f4d	-2.2765479e-11
247	0x2d461f48	1.1261943e-11
248	0xada09659	-1.8256662e-11
249	0xab4b919a	-7.232215e-13
250	0xad87af04	-1.5425446e-11
251	0xad728a7a	-1.3786855e-11
252	0xac0a27fc	-1.9633175e-12
253	0xacf7a298	-7.0382138e-12
254	0x2cda7d43	6.2098395e-12
255	0x2d8ad113	1.5781631e-11

exp_avg_sq f4 [128, 2]
0	0x2501921d	1.1238472e-16
1	0x2549eab8	1.7513497e-16
2	0x1f5a45fc	4.6221185e-20
3	0x1f5d5cd3	4.6875353e-20
4	0x2508ae3a	1.185515e-16
5	0x2617bc82	5.2644125e-16
6	0x1d1ca9cd	2.0734213e-21
7	0x1d8f8528	3.7989465e-21
8	0x1c12206c	4.834925e-22
9	0x1c10697a	4.778193e-22
10	0x1ecaef98	2.1486676e-20
11	0x1ecba248	2.1560579e-20
12	0x1c2dbcff	5.748517e-22
13	0x1c18fac2	5.061668e-22
14	0x1e048e6a	7.017472e-21
15	0x1d7beb41	3.3341197e-21
16	0x24eefb5b	1.0364186e-16
17	0x2733d291	2.4955388e-15
18	0x1f3857e2	3.903621e-20
19	0x1fc38216	8.280092e-20
20	0x1d659769	3.0386175e-21
21	0x1d206ae3	2.1231083e-21
22	0x26193a83	5.3161837e-16
23	0x24eb4501	1.020319e-16
24	0x253daab2	1.6450971e-16
25	0x24e8ea6f	1.0101111e-16
26	0x1c347fd8	5.972224e-22
27	0x1c9ca222	1.0365124e-21
28	0x1c201a8a	5.297386e-22
29	0x1c2da7dc	5.745785e-22
30	0x1b981f24	2.5166415e-22
31	0x1b845f96	2.189934e-22
32	0x26295fb2	5.8763345e-16
33	0x25a4c4f9	2.858294e-16
34	0x1cccad12	1.3544325e-21
35	0x1da53d79	4.3738698e-21
36	0x207a12b9	2.1182018e-19
37	0x21927646	9.924652e-19
38	0x254ee504	1.7945245e-16
39	0x26322605	6.180768e-16
40	0x1b9e0b00	2.6146016e-22
41	0x1b976443	2.5045647e-22
42	0x1d5c5733	2.9161839e-21
43	0x1d5b0fd2	2.8992588e-21
44	0x1c5df5cf	7.3440466e-22
45	0x1d1fe7fc	2.1163408e-21
46	0x202b8887	1.4529437e-19
47	0x1fbd15ee	8.008089e-20
48	0x250c6bcb	1.2179586e-16
49	0x26b49ea4	1.2533009e-15
50	0x26033419	4.552036e-16
51	0x258342ca	2.2770136e-16
52	0x25ed4441	4.1159197e-16
53	0x259e498a	2.7458463e-16
54	0x25162ba8	1.3025217e-16
55	0x2673454f	8.440149e-16
56	0x25144d2a	1.2863098e-16
57	0x24ef6722	1.0382444e-16
58	0x1d407876	2.5473265e-21
59	0x1d640294	3.0176882e-21
60	0x1c2fa72d	5.811871e-22
61	0x1c3278aa	5.9051214e-22
62	0x1d0155ba	1.7117327e-21
63	0x1c8bf021	9.26032e-22
64	0x202fb235	1.488204e-19
65	0x1eb57118	1.9210895e-20
66	0x1e956811	1.581903e-20
67	0x1df189d5	6.3934684e-21
68	0x26d1cf5d	1.4558494e-15
69	0x26fbab24	1.7463011e-15
70	0x24b7abfb	7.9654945e-17
71	0x252e6ee8	1.5129671e-16
72	0x1c044e6d	4.37765e-22
73	0x1c1c7d5e	5.1778104e-22
74	0x1ba03f3d	2.6510646e-22
75	0x1b4bcd40	1.6858086e-22
76	0x1e65e67d	1.2170823e-20
77	0x1f054da7	2.8228078e-20
78	0x1f1a01a9	3.2612142e-20
79	0x1eb7f76c	1.947821e-20
80	0x2550b326	1.8101822e-16
81	0x24edbd59	1.03103133e-16
82	0x2635682d	6.2938174e-16
83	0x2511e3b2	1.2653891e-16
84	0x1c8cc224	9.314607e-22
85	0x1c6ae9bc	7.77262e-22
86	0x29b1c228	7.89406e-14
87	0x24f8d036	1.0790558e-16
88	0x1bb42b4b	2.980648e-22
89	0x1bcc747a	3.382424e-22
90	0x1fcd62a7	8.6984084e-20
91	0x201db3fb	1.3357968e-19
92	0x253d3c5b	1.6413586e-16
93	0x2518df77	1.3259611e-16
94	0x1bfebec9	4.2144067e-22
95	0x1c7d7cf4	8.3872176e-22
96	0x265819ff	7.4975285e-16
97	0x2506af38	1.1682014e-16
98	0x1cacff6b	1.1448029e-21
99	0x1d7a224d	3.3104958e-21
100	0x1bc2398b	3.2131794e-22
101	0x1c5635ee	7.0876363e-22
102	0x1b1f71fe	1.3189005e-22
103	0x1c119be6	4.817797e-22
104	0x24b14112	7.687175e-17
105	0x24a1c28c	7.0152195e-17
106	0x1daaf4ce	4.5251747e-21
107	0x1ccc6987	1.3526866e-21
108	0x1f01a050	2.744942e-20
109	0x1e9b0ced	1.641661e-20
110	0x1cb46b76	1.1939179e-21
111	0x1c8416a7	8.740883e-22
112	0x29aca50d	7.666966e-14
113	0x24dedc25	9.665009e-17
114	0x1bcde8f4	3.4064948e-22
115	0x1c855ff6	8.826007e-22
116	0x25e90e16	4.0428602e-16
117	0x2553b7fd	1.836367e-16
118	0x1c033cd7	4.34229e-22
119	0x1c6a59c2	7.7540115e-22
120	0x252850b2	1.4599018e-16
121	0x263ab3f1	6.477558e-16
122	0x24a7c672	7.2760885e-17
123	0x249ff7bc	6.9374937e-17
124	0x264afde3	7.042691e-16
125	0x251cd139	1.360173e-16
126	0x1fd1da95	8.8876557e-20
127	0x1edc5abb	2.3330931e-20
128	0x1c2bfa71	5.690284e-22
129	0x1b8d3e6a	2.3366827e-22
130	0x1c648152	7.5606014e-22
131	0x1c0173c1	4.283213e-22
132	0x25161d4a	1.302035e-16
133	0x2651cf90	7.279274e-16
134	0x1d370158	2.4220543e-21
135	0x1d0b29a7	1.841803e-21
136	0x248818a8	5.902237e-17
137	0x2502ac3f	1.1334062e-16
138	0x24c7165d	8.634038e-17
139	0x24d8aaf5	9.396468e-17
140	0x250386e1	1.1408138e-16
141	0x24b8a85d	8.00825e-17
142	0x1cfa96b9	1.6582573e-21
143	0x1bf54dcd	4.0582128e-22
144	0x1c334427	5.9314217e-22
145	0x1caca167	1.1423727e-21
146	0x1daea034	4.6223063e-21
147	0x1dbf2262	5.059283e-21
148	0x249e261b	6.858613e-17
149	0x2599f32d	2.6706052e-16
150	0x2518c6c8	1.3251248e-16
151	0x254d3b4e	1.7801009e-16
152	0x1d8294bd	3.4564505e-21
153	0x1d4b6425	2.69186e-21
154	0x1beb2665	3.89023e-22
155	0x1c4122e1	6.3903423e-22
156	0x1cc3addd	1.294896e-21
157	0x1d64d900	3.0287735e-21
158	0x24bb3799	8.119251e-17
159	0x24bba564	8.1378505e-17
160	0x1bf8678b	4.1095071e-22
161	0x1c26a397	5.513623e-22
162	0x25c6e36e	3.4501637e-16
163	0x24b91b86	8.027759e-17
164	0x1c4d6f18	6.7972396e-22
165	0x1bd80b4d	3.5741505e-22
166	0x1b8f7d10	2.3738185e-22
167	0x1bcb2a9d	3.361107e-22
168	0x1f2dca95	3.6801747e-20
169	0x1eddf25d	2.3499524e-20
170	0x2576babb	2.1400365e-16
171	0x25b9f5a6	3.2258842e-16
172	0x24ac9c9c	7.4858416e-17
173	0x24d1a2ef	9.091532e-17
174	0x1cda1a97	1.4432903e-21
175	0x1cf5cd05	1.6265736e-21
176	0x1e63ecf4	1.2066281e-20
177	0x1e615825	1.1929629e-20
178	0x24bb98a7	8.1356926e-17
179	0x24f88ba6	1.0778943e-16
180	0x1e284c89	8.909673e-21
181	0x1e1d64e6	8.332376e-21
182	0x25bb4a85	3.2489825e-16
183	0x25e54ec0	3.977853e-16
184	0x1de0c9d9	5.950101e-21
185	0x1d9bc192	4.1228305e-21
186	0x1b6482a8	1.8901935e-22
187	0x1bd9b474	3.6016254e-22
188	0x2620c8f8	5.5783515e-16
189	0x26314b98	6.151166e-16
190	0x1cd456ce	1.4051422e-21
191	0x1cbf5772	1.2661924e-21
192	0x1c08f586	4.5315957e-22
193	0x1bd22304	3.4764214e-22
194	0x251c6146	1.35638e-16
195	0x24affdab	7.632388e-17
196	0x1b8e349c	2.3525927e-22
197	0x1c4495b4	6.5044447e-22
198	0x1c449f69	6.5056993e-22
199	0x1cd04fe1	1.3784934e-21
200	0x1d3cb967	2.4977444e-21
201	0x1d3a2798	2.4637365e-21
202	0x24f3cf9f	1.05736175e-16
203	0x2519cec9	1.3340696e-16
204	0x25b4576f	3.128427e-16
205	0x253a50c8	1.6160298e-16
206	0x2511df90	1.2652491e-16
207	0x24f24adf	1.0507761e-16
208	0x1ead6fa5	1.8363263e-20
209	0x1df8a254	6.5812897e-21
210	0x1c3f621f	6.3323417e-22
211	0x1c1dc852	5.220585e-22
212	0x2605a1b0	4.636277e-16
213	0x25e290ee	3.930296e-16
214	0x26121a55	5.068961e-16
215	0x24ca0c99	8.762488e-17
216	0x25404b6d	1.66789e-16
217	0x2528c4a6	1.4638304e-16
218	0x1c2ae98b	5.655013e-22
219	0x1c897b39	9.097752e-22
220	0x1b823ebd	2.154724e-22
221	0x1bf1f555	4.0028648e-22
222	0x259245bc	2.5374217e-16
223	0x25e2677a	3.927487e-16
224	0x254e3d35	1.788839e-16
225	0x25b50043	3.1398672e-16
226	0x2577fe4e	2.1509997e-16
227	0x24d78c73	9.347932e-17
228	0x2622b07a	5.644421e-16
229	0x25065c72	1.1653969e-16
230	0x24f67523	1.0688393e-16
231	0x261a14da	5.345774e-16
232	0x249ca42a	6.793232e-17
233	0x25124560	1.2686987e-16
234	0x1d2a92ed	2.2575272e-21
235	0x1d43dcf3	2.5922263e-21
236	0x1c85d95d	8.857389e-22
237	0x1c889d43	9.040376e-22
238	0x24e6f769	1.0016573e-16
239	0x2509bd32	1.1946958e-16
240	0x24ae862c	7.568777e-17
241	0x24e775a8	1.003796e-16
242	0x25434c61	1.6939432e-16
243	0x25aed62e	3.0329322e-16
244	0x24ada039	7.529822e-17
245	0x275e2b38	3.0832118e-15
246	0x1e2cb6a4	9.143373e-21
247	0x1d4fbd41	2.7494064e-21
248	0x1c1c2b5b	5.1672106e-22
249	0x1caa7c85	1.1281844e-21
250	0x1e158218	7.914897e-21
251	0x1efcd898	2.6771119e-20
252	0x1d5e5aeb	2.9428459e-21
253	0x1d806ae1	3.399183e-21
254	0x1cac7965	1.1413385e-21
255	0x1ca73493	1.1064723e-21

exp_avg f4 [128]
0	0x33f9b0d5	1.16271316e-07
1	0xb1a64692	-4.8392588e-09
2	0x33f171e6	1.1243155e-07
3	0x2fb59eda	3.303658e-10
4	0x2eac7db2	7.8439824e-11
5	0xaec0a8f2	-8.76116e-11
6	0xaf984972	-2.7700825e-10
7	0x3011050d	5.275787e-10
8	0x33f68b75	1.1480635e-07
9	0xb245b2ea	-1.15075895e-08
10	0xafee2e43	-4.332482e-10
11	0x33f31ace	1.1320445e-07
12	0x33f232bd	1.12782324e-07
13	0xaf96c9d2	-2.7428243e-10
14	0x2f3da34d	1.7247466e-10
15	0xaed572a8	-9.7064856e-11
16	0x34113750	1.35243e-07
17	0x2fb19765	3.2303685e-10
18	0x32c129ff	2.2487255e-08
19	0x34083cf6	1.2688164e-07
20	0xaed8161d	-9.826471e-11
21	0xaea2b313	-7.398717e-11
22	0x2f374b12	1.6670423e-10
23	0x31de82c2	6.475916e-09
24	0x3404cb0a	1.2367323e-07
25	0x3340d7d6	4.4899785e-08
26	0x34109172	1.3463958e-07
27	0x340385af	1.224896e-07
28	0x33bbf9fc	8.753338e-08
29	0xb01ac32c	-5.630223e-10
30	0xafdafc90	-3.9833425e-10
31	0xb00ba293	-5.079894e-10
32	0xb186bbaf	-3.9212504e-09
33	0x3062c884	8.250327e-10
34	0xb47125b2	-2.2458588e-07
35	0x33c71098	9.269678e-08
36	0xadabd9d8	-1.9537191e-11
37	0xafd8143f	-3.9304557e-10
38	0x306e3fbb	8.667446e-10
39	0x2fcae29e	3.6904607e-10
40	0x33cec803	9.6290044e-08
41	0x33f529a2	1.14162745e-07
42	0x2e9afe75	7.04831e-11
43	0x346a9d65	2.1850208e-07
44	0x2ef93f14	1.1334414e-10
45	0xb080d370	-9.37332e-10
46	0x33c94484	9.372255e-08
47	0xacdf4680	-6.3458683e-12
48	0x33f1e5b3	1.1264219e-07
49	0xafe3fa12	-4.1468745e-10
50	0x2e505ee0	4.737799e-11
51	0x2f03303f	1.1931521e-10
52	0x339f06e5	7.4052686e-08
53	0xafac90a3	-3.1389388e-10
54	0xb003f47a	-4.8004944e-10
55	0xb0279ae6	-6.097437e-10
56	0x3484af7e	2.4714603e-07
57	0xae3e3a32	-4.3252686e-11
58	0x33a13540	7.506833e-08
59	0xafd52468	-3.8770342e-10
60	0x34077f67	1.2619203e-07
61	0xb3a82e98	-7.831585e-08
62	0x340fb1b5	1.3382562e-07
63	0x318b8306	4.060328e-09
64	0xaf12dfba	-1.3358106e-10
65	0x2e6f9cfc	5.448174e-11
66	0x34031ac4	1.2210063e-07
67	0x2fc5da99	3.5989414e-10
68	0xb4cce618	-3.8165376e-07
69	0x33b29732	8.316273e-08
70	0x33c34b1e	9.094059e-08
71	0xae20f8d5	-3.6600795e-11
72	0xaf7970b8	-2.2686464e-10
73	0x3099bc72	1.1185775e-09
74	0x33e03adf	1.04415214e-07
75	0x33947a99	6.9140874e-08
76	0xb0312013	-6.4437805e-10
77	0xafd0d9d8	-3.7989767e-10
78	0x300667d4	4.8896465e-10
79	0x34240910	1.5276987e-07
80	0xae2e961a	-3.9696336e-11
81	0x34055e30	1.2420855e-07
82	0xafbc9301	-3.4301453e-10
83	0x2e29c483	3.860069e-11
84	0x316c54cb	3.439072e-09
85	0x3320eca4	3.7468126e-08
86	0x33b25f08	8.306057e-08
87	0xb042e3e0	-7.090062e-10
88	0xafdce776	-4.018223e-10
89	0x33b34d99	8.349452e-08
90	0x305e3ca0	8.0849283e-10
91	0x33902f88	6.7141684e-08
92	0x30bee663	1.3889799e-09
93	0xaf836a17	-2.3904143e-10
94	0x3429d8dc	1.5818244e-07
95	0x30a47542	1.1965897e-09
96	0x2f3e7b54	1.7324214e-10
97	0x33b9a342	8.64443e-08
98	0x2eaed27b	7.949993e-11
99	0xad3efc90	-1.085633e-11
100	0xb0a17c41	-1.1749607e-09
101	0x35a93a2b	1.260841e-06
102	0x324e9180	1.2023861e-08
103	0x33e73fb7	1.07683654e-07
104	0xb1179ce2	-2.206257e-09
105	0x2f3d5b11	1.7221803e-10
106	0xb2400450	-1.11768514e-08
107	0x33e4c6b5	1.0653222e-07
108	0x340e6578	1.3261695e-07
109	0x2fde2cfd	4.041353e-10
110	0x2e7286fe	5.5144327e-11
111	0x340b2b21	1.2961074e-07
112	0x34a0d104	2.99544e-07
113	0x33db186a	1.0202423e-07
114	0x33f372e7	1.133647e-07
115	0x33f24259	1.1281072e-07
116	0x33c12934	8.994758e-08
117	0xb02763fa	-6.089632e-10
118	0xaf9af1b7	-2.8184186e-10
119	0x33ca8a1e	9.4314814e-08
120	0x33fd5cd6	1.1798117e-07
121	0x33eb6ffa	1.0963409e-07
122	0x34063a68	1.250097e-07
123	0xaf9db3ae	-2.8685804e-10
124	0xaff33a96	-4.424307e-10
125	0xb0615c2d	-8.1985513e-10
126	0x2f400b33	1.7466277e-10
127	0x3002e2b2	4.761588e-10

exp_avg_sq f4 [128]
0	0x2b8a5286	9.828395e-13
1	0x264b605f	7.056038e-16
2	0x2baaf6e9	1.2147758e-12
3	0x23c1a029	2.0992932e-17
4	0x21628b9a	7.675654e-19
5	0x2447e05d	4.334129e-17
6	0x2240647d	2.607405e-18
7	0x2394c81a	1.6130938e-17
8	0x2bbb92c9	1.332789e-12
9	0x2607850c	4.7017846e-16
10	0x229f2b07	4.3142593e-18
11	0x2b95bf51	1.0640188e-12
12	0x2b94dc9a	1.0577262e-12
13	0x21d8f54a	1.4701657e-18
14	0x21a5336d	1.1194447e-18
15	0x21840bcd	8.947792e-19
16	0x2bf6f33f	1.7546866e-12
17	0x233a29d6	1.0091939e-17
18	0x2847a5f4	1.10827044e-14
19	0x2bd1a635	1.4896475e-12
20	0x22426cca	2.6349495e-18
21	0x2343a6f9	1.0606329e-17
22	0x22b546c1	4.913506e-18
23	0x264070fe	6.6766514e-16
24	0x2bb37406	1.2750918e-12
25	0x2b81cca0	9.222796e-13
26	0x2c060994	1.9047862e-12
27	0x2bba9bbc	1.325932e-12
28	0x2b23c6d8	5.8185184e-13
29	0x23a32505	1.7688174e-17
30	0x2218e610	2.0721635e-18
31	0x23086aa1	7.395154e-18
32	0x25de1b77	3.8529472e-16
33	0x24447684	4.2601112e-17
34	0x2cfa9561	7.1220117e-12
35	0x2b378507	6.5199273e-13
36	0x21eb9f3e	1.596637e-18
37	0x21462e45	6.7146247e-19
38	0x249c58f7	6.780493e-17
39	0x24369464	3.959065e-17
40	0x2b4a3f6e	7.185284e-13
41	0x2ba11c59	1.1447606e-12
42	0x2330a63c	9.576181e-18
43	0x2c1265d7	2.080438e-12
44	0x219683dc	1.0199298e-18
45	0x27009cb2	1.7848513e-15
46	0x2b2c6d07	6.125798e-13
47	0x21c40daa	1.3285093e-18
48	0x2baaaa97	1.2126575e-12
49	0x22ca7c5c	5.488388e-18
50	0x226e48d6	3.2293574e-18
51	0x221a9ebf	2.0954931e-18
52	0x2add2745	3.9284735e-13
53	0x22a3e159	4.4419835e-18
54	0x24a4a322	7.140002e-17
55	0x22862261	3.6357173e-18
56	0x2bf6622f	1.7506603e-12
57	0x21b889d0	1.2504804e-18
58	0x2b5e8f8b	7.906945e-13
59	0x21fd0852	1.7146149e-18
60	0x2bd5b89e	1.5185802e-12
61	0x2a8e41a5	2.5269817e-13
62	0x2bc59bc2	1.4040923e-12
63	0x25a1a41c	2.8040253e-16
64	0x212613e3	5.626931e-19
65	0x2230ce96	2.3961813e-18
66	0x2bc612ed	1.4073999e-12
67	0x22b56cb4	4.9175242e-18
68	0x2aa0bb78	2.8551792e-13
69	0x2aeec9f2	4.241742e-13
70	0x2b22d9f0	5.785641e-13
71	0x22000025	1.7347311e-18
72	0x220fcc82	1.948838e-18
73	0x240aa94d	3.0067383e-17
74	0x2b6f1b8e	8.4948097e-13
75	0x2bce2faa	1.465041e-12
76	0x235e8c65	1.2064374e-17
77	0x2292f2ee	3.983059e-18
78	0x2216963c	2.0408324e-18
79	0x2c87e368	3.862178e-12
80	0x2282375d	3.529519e-18
81	0x2bbac1a7	1.3269844e-12
82	0x21a2ea44	1.1039557e-18
83	0x21348df0	6.1174225e-19
84	0x250dbbe5	1.2293462e-16
85	0x2c14a12d	2.1121536e-12
86	0x2b1100c2	5.15154e-13
87	0x22cdd070	5.5786053e-18
88	0x23c523a6	2.137388e-17
89	0x2b15d35f	5.322877e-13
90	0x2458b163	4.6987786e-17
91	0x2c3357aa	2.5486093e-12
92	0x239a29ab	1.671436e-17
93	0x2193c542	1.0013321e-18
94	0x2c3bfbb7	2.6714028e-12
95	0x238b8f32	1.5131056e-17
96	0x227b6a2b	3.4073048e-18
97	0x2b1c8497	5.560634e-13
98	0x2280b420	3.4885184e-18
99	0x2248a01d	2.7189818e-18
100	0x2317d93f	8.23173e-18
101	0x2bf32a01	1.7277847e-12
102	0x2c2ee2b2	2.4852728e-12
103	0x2b817eee	9.201231e-13
104	0x24c15f56	8.386191e-17
105	0x221843be	2.0635704e-18
106	0x2c0e04bf	2.0182048e-12
107	0x2b7bfb59	8.952193e-13
108	0x2be7201c	1.6422449e-12
109	0x21ec84c3	1.6027124e-18
110	0x21bf8ded	1.2980231e-18
111	0x2dcadc1c	2.306249e-11
112	0x2b3e8818	6.769043e-13
113	0x2b6865c7	8.25642e-13
114	0x2b93b317	1.0494686e-12
115	0x2ba63a7d	1.1811243e-12
116	0x2b26044c	5.898101e-13
117	0x2343ed96	1.0621282e-17
118	0x22e38ed1	6.1679686e-18
119	0x2b32d8ac	6.3538996e-13
120	0x2b984c75	1.0821471e-12
121	0x2cda415d	6.2031894e-12
122	0x2be267be	1.608706e-12
123	0x2327a01d	9.0869934e-18
124	0x22c8dd8f	5.4444693e-18
125	0x24ffa948	1.10875395e-16
126	0x2404b5be	2.877688e-17
127	0x22b7c1e1	4.9807527e-18

exp_avg f4 [64, 128]
0	0x31725fc8	3.527008e-09
1	0x00000000	0.0
2	0x31726b40	3.52766e-09
3	0x00000000	0.0
4	0x00000000	0.0
5	0x00000000	0.0
6	0x00000000	0.0
7	0x00000000	0.0
8	0x3172781c	3.528391e-09
9	0x00000000	0.0
10	0x00000000	0.0
11	0x31727916	3.5284464e-09
12	0x31723c3a	3.524987e-09
13	0x00000000	0.0
14	0x00000000	0.0
15	0x00000000	0.0
16	0x31729d10	3.5304915e-09
17	0x00000000	0.0
18	0x00000000	0.0
19	0x31726b40	3.52766e-09
20	0x00000000	0.0
21	0x00000000	0.0
22	0x00000000	0.0
23	0x00000000	0.0
24	0x31726ba6	3.5276826e-09
25	0x334ff830	4.842167e-08
26	0x3172a628	3.5310084e-09
27	0x31726bce	3.5276915e-09
28	0x31723c3a	3.524987e-09
29	0x00000000	0.0
30	0x00000000	0.0
31	0x00000000	0.0
32	0x00000000	0.0
33	0x00000000	0.0
34	0x33436fa9	4.550353e-08
35	0x317263e4	3.5272416e-09
36	0x00000000	0.0
37	0x00000000	0.0
38	0x00000000	0.0
39	0x00000000	0.0
40	0x3172426a	3.5253387e-09
41	0x3172806a	3.528863e-09
42	0x00000000	0.0
43	0x308ae566	1.010602e-09
44	0x00000000	0.0
45	0x00000000	0.0
46	0x3172551e	3.5264018e-09
47	0x00000000	0.0
48	0x317270d2	3.5279766e-09
49	0x00000000	0.0
50	0x00000000	0.0
51	0x00000000	0.0
52	0x31723c3a	3.524987e-09
53	0x00000000	0.0
54	0x00000000	0.0
55	0x00000000	0.0
56	0x30127588	5.328151e-10
57	0x00000000	0.0
58	0x3172b124	3.5316328e-09
59	0x00000000	0.0
60	0x31726b44	3.5276608e-09
61	0x32f86f5e	2.8921644e-08
62	0x31726e38	3.5278287e-09
63	0x00000000	0.0
64	0x00000000	0.0
65	0x00000000	0.0
66	0x31726b42	3.5276604e-09
67	0x00000000	0.0
68	0x330659cc	3.1280976e-08
69	0x31723c3a	3.524987e-09
70	0x31723c3a	3.524987e-09
71	0x00000000	0.0
72	0x00000000	0.0
73	0x00000000	0.0
74	0x31726a88	3.527619e-09
75	0x32be1f94	2.2133271e-08
76	0x00000000	0.0
77	0x00000000	0.0
78	0x00000000	0.0
79	0x31726368	3.527214e-09
80	0x00000000	0.0
81	0x3172681a	3.527481e-09
82	0x00000000	0.0
83	0x00000000	0.0
84	0x00000000	0.0
85	0x308c9c99	1.0230848e-09
86	0x31724ec2	3.5260403e-09
87	0x00000000	0.0
88	0x00000000	0.0
89	0x31724eae	3.526036e-09
90	0x00000000	0.0
91	0x32a0e802	1.8731956e-08
92	0x00000000	0.0
93	0x00000000	0.0
94	0x3172965e	3.5301109e-09
95	0x00000000	0.0
96	0x00000000	0.0
97	0x31723c3a	3.524987e-09
98	0x00000000	0.0
99	0x00000000	0.0
100	0x00000000	0.0
101	0x328ed37d	1.662715e-08
102	0x318a3823	4.0227106e-09
103	0x31725694	3.5264849e-09
104	0x00000000	0.0
105	0x00000000	0.0
106	0x32bf0e24	2.2241757e-08
107	0x317271a6	3.5280237e-09
108	0x31725f58	3.5269831e-09
109	0x00000000	0.0
110	0x00000000	0.0
111	0x3172af58	3.5315306e-09
112	0x3319fe6a	3.5854477e-08
113	0x31723c40	3.5249883e-09
114	0x317281be	3.5289385e-09
115	0x31726aea	3.5276408e-09
116	0x31725b08	3.526738e-09
117	0x00000000	0.0
118	0x00000000	0.0
119	0x31725434	3.5263499e-09
120	0x317260b0	3.5270595e-09
121	0x2e997c55	6.97972e-11
122	0x3174a268	3.559899e-09
123	0x00000000	0.0
124	0x00000000	0.0
125	0x00000000	0.0
126	0x00000000	0.0
127	0x00000000	0.0
128	0xb29b29c5	-1.806337e-08
129	0x00000000	0.0
130	0xb29b2715	-1.8062147e-08
131	0x00000000	0.0
132	0x00000000	0.0
133	0x00000000	0.0
134	0x00000000	0.0
135	0x00000000	0.0
136	0xb29b2534	-1.8061293e-08
137	0x00000000	0.0
138	0x00000000	0.0
139	0xb29b252d	-1.806128e-08
140	0xb29b2f43	-1.8065867e-08
141	0x00000000	0.0
142	0x00000000	0.0
143	0x00000000	0.0
144	0xb29b1f2f	-1.8058556e-08
145	0x00000000	0.0
146	0x00000000	0.0
147	0xb29b2716	-1.8062149e-08
148	0x00000000	0.0
149	0x00000000	0.0
150	0x00000000	0.0
151	0x00000000	0.0
152	0xb29b2710	-1.8062138e-08
153	0xb3948908	-6.916713e-08
154	0xb29b1d82	-1.8057793e-08
155	0xb29b2703	-1.8062115e-08
156	0xb29b2f43	-1.8065867e-08
157	0x00000000	0.0
158	0x00000000	0.0
159	0x00000000	0.0
160	0x00000000	0.0
161	0x00000000	0.0
162	0xb37ce9be	-5.888591e-08
163	0xb29b292c	-1.8063098e-08
164	0x00000000	0.0
165	0x00000000	0.0
166	0x00000000	0.0
167	0x00000000	0.0
168	0xb29b2e4c	-1.8065428e-08
169	0xb29b2447	-1.8060872e-08
170	0x00000000	0.0
171	0xb1d5f0ae	-6.226478e-09
172	0x00000000	0.0
173	0x00000000	0.0
174	0xb29b2b58	-1.8064085e-08
175	0x00000000	0.0
176	0xb29b2690	-1.8061911e-08
177	0x00000000	0.0
178	0x00000000	0.0
179	0x00000000	0.0
180	0xb29b2f43	-1.8065867e-08
181	0x00000000	0.0
182	0x00000000	0.0
183	0x00000000	0.0
184	0xb2097f98	-8.003461e-09
185	0x00000000	0.0
186	0xb29b1c14	-1.8057143e-08
187	0x00000000	0.0
188	0xb29b2711	-1.806214e-08
189	0xb46ad52c	-2.18705e-07
190	0xb29b2692	-1.8061915e-08
191	0x00000000	0.0
192	0x00000000	0.0
193	0x00000000	0.0
194	0xb29b270f	-1.8062137e-08
195	0x00000000	0.0
196	0x3086ec80	9.817e-10
197	0xb29b2f43	-1.8065867e-08
198	0xb29b2f43	-1.8065867e-08
199	0x00000000	0.0
200	0x00000000	0.0
201	0x00000000	0.0
202	0xb29b2749	-1.806224e-08
203	0xb3b4d2a5	-8.420219e-08
204	0x00000000	0.0
205	0x00000000	0.0
206	0x00000000	0.0
207	0xb29b2926	-1.8063087e-08
208	0x00000000	0.0
209	0xb29b27f2	-1.806254e-08
210	0x00000000	0.0
211	0x00000000	0.0
212	0x00000000	0.0
213	0xb2cadc90	-2.3616195e-08
214	0xb29b2c63	-1.806456e-08
215	0x00000000	0.0
216	0x00000000	0.0
217	0xb29b2c77	-1.8064595e-08
218	0x00000000	0.0
219	0x329e94f8	1.8461364e-08
220	0x00000000	0.0
221	0x00000000	0.0
222	0xb29b1ffc	-1.805892e-08
223	0x00000000	0.0
224	0x00000000	0.0
225	0xb29b2f43	-1.8065867e-08
226	0x00000000	0.0
227	0x00000000	0.0
228	0x00000000	0.0
229	0x33f9fb0e	1.16406326e-07
230	0x3228a524	9.816436e-09
231	0xb29b2b24	-1.8063993e-08
232	0x00000000	0.0
233	0x00000000	0.0
234	0xb4518519	-1.9513062e-07
235	0xb29b2604	-1.8061662e-08
236	0xb29b29dc	-1.806341e-08
237	0x00000000	0.0
238	0x00000000	0.0
239	0xb29b1d36	-1.8057658e-08
240	0xb2f9bc56	-2.907306e-08
241	0xb29b2f43	-1.8065867e-08
242	0xb29b2376	-1.80605e-08
243	0xb29b271d	-1.8062162e-08
244	0xb29b2a86	-1.8063712e-08
245	0x00000000	0.0
246	0x00000000	0.0
247	0xb29b2b85	-1.8064165e-08
248	0xb29b29a4	-1.806331e-08
249	0x2dbd7354	2.1538028e-11
250	0xb29ab951	-1.8012232e-08
251	0x00000000	0.0
252	0x00000000	0.0
253	0x00000000	0.0
254	0x00000000	0.0
255	0x00000000	0.0
